Marrakesh Example/Resources/TinyML_saved_models/modelMNIST.tflite (tflite, 491072 bytes, 8 tensors)

arith.constant f4 [64]
00000000: 15c9 8bbd 7155 2cbd e371 82bd 4719 e6bd
00000010: 87ad 5e3d 755f 82bd c351 a2bd c0d4 68be
00000020: 6f31 cb3c fe3a a7bc 6f3d 5abd 4161 78bd
00000030: 7501 c7bd 6ab8 95bc 96da 12bd aa1f 7d3c
00000040: f295 11be 34e1 c8bd c4f7 eebd 6911 82bb
00000050: d0b4 52be 48a5 2cbe 3f1b 9ebd e39c 54bd
00000060: 9f2e f5bd 3edb f4bd 17bb dcbd 99a5 c93b
00000070: 72f0 49bd ea9f d9bd 67f8 75bd fde3 dbbd
00000080: ae33 c5bd ca82 35be a4dc 95bd 784a ccbd
00000090: 5dbe 71bd f7b2 d4bd 5ef4 70bd c50b 65bd
000000a0: 734a 0dbe f6e7 b8bc e7c6 aebd 7776 9fbd
000000b0: b1b1 4c3c 4984 e3ba f47c e6bd 7c1b e3bc
000000c0: 3e10 1bbd b4b2 1d3c 56a4 7abc 07c0 0cbe
000000d0: 1253 56bd 0719 4bbd 0081 a0bc c169 66bd
000000e0: 9d63 123b 9828 b9bd d116 0dbe fcd9 11bd
000000f0: e3ad a2bc efc3 f8bc b7f9 d2bd 4e5c 99bd
-0.06825463 -0.04207367 -0.063693784 -0.1123529 0.054364707 -0.06365863 -0.07925751 -0.22737408
0.024803845 -0.020413872 -0.053281244 -0.060639624 -0.09717075 -0.018276412 -0.03585299 0.015449444
-0.14217356 -0.09808579 -0.11668351 -0.0039693606 -0.20576787 -0.16859925 -0.077200405 -0.05190743
-0.11971783 -0.1195588 -0.10777872 0.006153774 -0.049301572 -0.10626204 -0.060051348 -0.10736845
-0.09628998 -0.17725673 -0.073174745 -0.09975141 -0.059019435 -0.10385697 -0.058826797 -0.055919427
-0.13797931 -0.022571545 -0.08534031 -0.07786267 0.012493537 -0.001735815 -0.11254302 -0.027723067
-0.037857287 0.009625126 -0.01529797 -0.13745128 -0.052325316 -0.049584415 -0.019592762 -0.0562532
0.0022337206 -0.09040946 -0.13778235 -0.035608277 -0.019858306 -0.030366866 -0.103015356 -0.07488309

arith.constant1 f4 [64, 3, 3, 32]
00000000: 0911 a03c 3efd e6bd fd1f 46bb 2005 bbbd
00000010: 1012 0e3c d69c fbbd 411d 6cbd ec75 6cbc
00000020: 2ac6 203c 50d0 16be c2bd fcbd f7b3 14be
00000030: 2c70 01bd 0f15 adbd aafe 74be 0437 d5bd
00000040: 2e53 313c 032a cdbd 23d6 933d d90f 4a3d
00000050: 295b e23a fe86 93bd 853a 32be f7e2 553d
00000060: 7c3e 34bd 184d 53bd 2a27 49be 4064 42bc
00000070: 5972 a5be d7b1 ffbc 80c5 8e3d 0add e0bd
00000080: 721f 043d 8018 8bbd 1b2a 5bbd 8515 d6bd
00000090: c64c f03d bca6 b43d 7184 b9bd ab59 973d
000000a0: acc8 7e3d 81b8 163c d436 97bd 87c3 c7bc
000000b0: 27bf 9d3d b713 ee3d 5ec2 2dbe b8c7 9cbd
000000c0: 1329 343d c395 9dbd 088d 8b3d b579 4d3d
000000d0: fa44 8cbc 7fb5 9bbd 2f3a dbbd d449 98bb
000000e0: 7661 83bd e2dd b83c 16de 4abe 411d 703c
000000f0: 15f8 23be b45b 573d a6f1 86bd 3023 8cbe
00000100: 58e3 443e 663a cebd be75 6ebd fa05 8e3d
00000110: fccb 60bc b9e3 f83c 0f90 ce3d 5f50 9b3d
00000120: 875d ca3d 8627 ca3d bd6a 14be 770e 80be
00000130: 7a7c a23d 6484 ef3d 8e34 8cbe d375 e93b
00000140: fd66 2cbb 542b cf3d 3048 933d 207b 643c
00000150: 09c5 82be ea86 86bc 839f 073e fd9d bd3d
00000160: 3605 bcbd bdef bcbd 9bd9 3bbe 7169 c43d
00000170: b9b2 bfbe 7757 433d 4503 46bc 8713 01bd
00000180: ed29 95bd e7e4 d63d c1ca 1e3d 3dc2 06be
00000190: 8ddd 96bb 1761 4dbe 6191 13be 599b e4bc
000001a0: 045f 6fbe 320c 77be e383 8abe e582 0cbe
000001b0: 0b31 f63c d628 c0bd f439 9dbe 5477 e2bd
000001c0: a089 edbc e420 babd aa2a 52bc 1ef4 afbd
000001d0: 19a1 4ebe ec2d 173d cf81 8fbe e90d 5d3c
000001e0: 738c eb3d 48a8 80bd c207 f2bc 160c dfbc
000001f0: b469 dcbd 976d 8dbb 8cf8 613d c649 c83d
00000200: 1e83 08bd 2251 873b 94c8 9fbd 36d4 1bbb
00000210: 96e1 66bc 628c b63d 99e6 093d f12e 27bd
00000220: f63a 71bd c04c ebbd c1dc 9abd 559e 01bd
00000230: 8a83 5abd b8a7 cb3d e466 243d 913d 763d
00000240: e7d5 bfbd 6135 b3bc 3387 9abd d225 883c
00000250: 733d 46bd 9233 73bd 4bf8 cabd 7ecc 1f3d
00000260: 78ea b83d 3efa 04bd 1c98 023d 4a46 54bd
00000270: a313 8e3d 9ddb 94bc ae8c 4bbd a3f5 5bbe
00000280: c252 39bc 965b 99be a5e1 98bd 52cb 6e3c
00000290: 63ca 59be 8dc2 0f3d e98a 5abc 46c8 c1bc
000002a0: 9313 dcbd 136c 1c3c 85ab 94bd 23b9 e4bb
000002b0: 9070 e93c 4fe1 73bd 3d63 7e3d c736 543d
000002c0: a78d 6abe 013b 313d ceaf 9fbd b7dd d6bc
000002d0: 3338 1abb 7a3a eabd cd06 34bc d604 173d
000002e0: 62fa 43be 38b4 9abd 4933 3abd 1cc2 fbbd
000002f0: 9f98 553e fbd2 0ebd 92f2 56bc 6d2d b33c
00000300: fe0f 0bbe 2ce4 083e 61c7 3abe 9a54 0dbe
00000310: 8f1e f8bc 8927 8ebe 60cd 8cbe ae57 a3bd
00000320: 42ef 9ebe 0104 63be ea01 8abe 03ff b4be
00000330: 9b5e 0dbe 98a5 b0bd 5fd1 3cbe 8a6a 81be
00000340: 0a9e d1bd b027 8f3d b4bc 813d 8ffd 72be
00000350: 1a89 74be 48a5 98bd 0016 f6bd b2e8 3ebe
00000360: 03df e93d 4109 703c 7ac9 5dbe ef83 57bd
00000370: b8a3 ce3c e3f7 41bd 913e b9bc acd4 6b3e
00000380: 6992 a5bd e626 2e3e 891c cf3d ee75 b8bd
00000390: 1811 863d 2f4c 6dbd 1219 073e dc6c c23d
000003a0: dafc 353d 658c 18be 59df 183e ce24 89bd
000003b0: a226 bf3d 3aab 30bd 0ad6 703d a970 373d
000003c0: 618d 8dbd 77fe d3bc d12c c53d 7b67 33bd
000003d0: cd99 b0bc 58b5 7d3d 8ed2 6dbd 3981 023e
000003e0: f889 0b3e 890f dd3d c00a 223e 07f9 62bc
000003f0: 1f4c 533e 3e8d 103d 8614 e63d 0205 823d
0.019539373 -0.11278771 -0.003023147 -0.09131837 0.008671299 -0.122857735 -0.057645086 -0.014432412
0.009812871 -0.14727902 -0.12340881 -0.14521776 -0.031601116 -0.08451282 -0.23925272 -0.10410884
0.010823054 -0.10017779 0.07218578 0.04933152 0.00172696 -0.07203482 -0.17405136 0.052218404
-0.044004902 -0.051587194 -0.19643846 -0.011864722 -0.32313803 -0.03121273 0.06971264 -0.1097966
0.03225655 -0.067917824 -0.05350695 -0.10453323 0.11733393 0.088208646 -0.09058464 0.0739015
0.062203094 0.009199263 -0.073835045 -0.024385227 0.07702475 0.11624854 -0.16968676 -0.07655281
0.043984484 -0.076945804 0.06814009 0.050164897 -0.017122734 -0.07602977 -0.10704457 -0.004647473
-0.064150736 0.02256674 -0.19811282 0.014655412 -0.16012605 0.05257769 -0.065890595 -0.27370596
0.1922735 -0.10069732 -0.058217756 0.06934734 -0.013720509 0.030382024 0.10086071 0.07583689
0.0988112 0.0987082 -0.14493842 -0.25011036 0.07933898 0.116951734 -0.27383846 0.0071246414
-0.0026306503 0.10115686 0.07191503 0.013945371 -0.2554095 -0.016421754 0.13244443 0.092586495
-0.091806814 -0.09225414 -0.18344729 0.09590424 -0.37441042 0.047690835 -0.01208574 -0.031512763
-0.07283387 0.104928784 0.03876758 -0.13160034 -0.0046040476 -0.20056568 -0.14410926 -0.027906107
-0.2337609 -0.24125746 -0.27053747 -0.13721807 0.030052682 -0.09382789 -0.30708277 -0.11057916
-0.028996289 -0.09088305 -0.012827555 -0.085914835 -0.20178641 0.03690903 -0.28028724 0.013492086
0.11501398 -0.06282097 -0.029544715 -0.027227443 -0.10762349 -0.0043160426 0.055168673 0.09779696
-0.033328168 0.004129545 -0.07801929 -0.002377761 -0.01409187 0.08913495 0.03366718 -0.04081625
-0.05889412 -0.11489248 -0.07561637 -0.031645138 -0.0533481 0.09944099 0.040137187 0.060117308
-0.093669705 -0.021876039 -0.075453185 0.016619597 -0.048398446 -0.059375353 -0.099106394 0.03901338
0.09029096 -0.032465212 0.031883344 -0.051824845 0.06937339 -0.018171126 -0.04969471 -0.21480422
-0.011311235 -0.29952687 -0.07464913 0.0145748425 -0.2126861 0.035097647 -0.013338783 -0.023655068
-0.10745921 0.009547251 -0.07259277 -0.006980078 0.028496057 -0.059541043 0.06210636 0.051810052
-0.22905599 0.04326916 -0.07797204 -0.026228769 -0.0023532033 -0.11436935 -0.01098795 0.036869846
-0.19138482 -0.07553905 -0.045459066 -0.12292883 0.20859002 -0.034869175 -0.013119357 0.021872247
-0.1358032 0.1336829 -0.1824012 -0.13801804 -0.030288009 -0.27764538 -0.2750044 -0.07975708
-0.31041914 -0.22169496 -0.26954585 -0.35350809 -0.1380562 -0.086253345 -0.18439244 -0.25276595
-0.10235222 0.06989992 0.063348204 -0.23729537 -0.23880425 -0.074534 -0.12015915 -0.18643454
0.11419489 0.014650644 -0.21658888 -0.052616056 0.025224552 -0.047355544 -0.022612842 0.23030347
-0.08084566 0.17007026 0.101128645 -0.09006868 0.06546229 -0.057933982 0.13193157 0.094934195
0.04443059 -0.14897306 0.1492895 -0.06696473 0.093335405 -0.043132044 0.058797874 0.044785175
-0.069117315 -0.025878174 0.09627689 -0.04379986 -0.021557713 0.06194052 -0.05806213 0.12744607
0.1362685 0.10793979 0.15824413 -0.013853318 0.20634507 0.03529095 0.11234383 0.063486114

arith.constant2 f4 [10, 64]
00000000: f4ea a6bc 1703 8cbc 55bc f83c c2fc c23b
00000010: 0276 3bbd 3de1 cabe 5e1b 943e 4bdc e5be
00000020: 873d 7dbe 81c6 b53d 235f b2be d5a3 dfbc
00000030: d707 853e 00dc a0bd beeb 683d c720 783e
00000040: cea0 9dbe d3fc aa3d db3b 333d 20c7 36be
00000050: 86fe a83e e54f 7abe 3947 e9be 4510 56bd
00000060: 0a54 ad3d 7ed2 383e 645f 2e3e 1a6d 58bd
00000070: b066 993c b12f b6bd b511 92be 9e82 1cbe
00000080: cbb3 44be e447 8a3e d601 09be cf1a e5bc
00000090: ae3b dfbd 6a2a 01be bdca 37be 3df5 6d3e
000000a0: 4949 39be 0598 cabc 5a1c 61be 23e2 22bc
000000b0: 356e b83e eef1 223e adda 9f3d 5f7b 82bd
000000c0: e678 55be 96fb 58bc 33fb 3bbe fb60 733d
000000d0: 640d f6bd 53aa 49bc 0a42 4a3e 27ed 9cbd
000000e0: 2060 76be f9fc 963d e369 4e3e 603b 9dbe
000000f0: 2f53 903e a8cb a0be b704 733d a053 6fbe
00000100: befa 93be 5dd7 9f3d 7bfd 70bd 7762 c0bd
00000110: 236e adbc c223 3e3e 6a14 41be d527 193e
00000120: d78a 93bd ceb6 26bd 6551 6bbe 209b 66be
00000130: 84a5 503d 2b3b 6f3c 99e2 903e c5d7 353e
00000140: e637 5c3e 93ac 523e aac1 29be b34b a23e
00000150: a23f 793e d459 81bc b8a1 8fbe 3846 273e
00000160: a7d5 9dbe 644a 92be 79ba 66bd 8f1c b1be
00000170: 7086 143e f4c5 423e 33ef 943e e9df 913e
00000180: 9407 06be 3dbe e73d 3be9 0d3e bf4b 4fbe
00000190: 8c98 60be b200 8abe d0b6 c9bb 35eb 9abe
000001a0: fe4d 82bd 54e5 dcbd b505 39bd 64a7 883c
000001b0: 04ed 5c3e d69c 473c b061 2dbe 11ca b7bc
000001c0: 0776 91be 29b9 80be 6a8c babd a5a8 48bd
000001d0: 43f4 87be b6eb 1b3e 5f63 60be 87d6 25be
000001e0: 05ca 13be cce8 0b3e 1fc2 23be 3c9d 873e
000001f0: f07a 5f3e 3ca2 023e 63eb 1c3e 54d8 513e
00000200: cc7f cebe 8da3 9a3d ea24 1fba d68a 313e
00000210: 6bd2 93bb 987a c1be b2d1 333e 078d ad3d
00000220: 1af0 d3bb 859f 473e 9e7f 6f3e 9e42 26be
00000230: 6e2c 03be 0b06 76bb 565c a4be 9326 6b3e
00000240: 126c 3dbd 5799 b93e c2ad 01be 9652 93bc
00000250: ae9c e2be 186b 1fbe 1d34 06be 278b d2b8
00000260: 7112 e3bd 12aa 463e 0031 50be f5ea 903e
00000270: b20f ac3d f195 83be 88cb 2c3e a441 febe
00000280: cbb3 efbd a5df 84bd fd00 633e fae1 06bc
00000290: 4e62 dfbd fee7 023e 82d9 3e3e 1aa5 95bd
000002a0: 2318 80be b9fa 4cbe 0094 a93d 6783 64be
000002b0: ecec 933e 4c20 cabe d2e5 ca3d 5ed1 633d
000002c0: d970 a63e 80e6 44be c0d0 c4bd 1d35 86be
000002d0: 0a2c 6cbd 25b1 66be e732 4cbe 6291 dfbc
000002e0: d8f4 84bd f471 953e 5f9e f3be e068 eebe
000002f0: 972a 3e3e 8f65 1e3e e10b 0ebe 3d16 823d
00000300: 43a4 673d ae97 a73e 1ba5 95be 9ed2 cebd
00000310: 5c42 5c3e 1f03 273e ddd1 fc3d 00d8 6f3c
00000320: a4cf 3abe b922 b6bd 3398 adbe 05d1 283e
00000330: 034b 713d da18 81be 6c22 0fbe 2a26 ca3c
00000340: 369a 9bbe 45ab 5cbe a34a 50be b3fd 56be
00000350: 7e88 4ebe 8a07 443e a98b 4b3e d626 5b3e
00000360: fcdb 1c3e 8c28 b83d 38f3 763e 6c2c ca3d
00000370: 6560 80be ab56 a73d f1cb 19be 2115 eb3d
00000380: 0cb9 7fbe e28d 793e 4574 8f3e d6e2 fd3d
00000390: 9a5f d03d ae98 2dbe df2b e3bd c764 7bbe
000003a0: ea10 03bf 62e4 0cbd dbbc 613e 9d63 5e3e
000003b0: 6d0a ecbd 9f33 293e 2091 c5bd 7d79 cfbe
000003c0: 92e5 5d3e 28de 54bd 17ae 89be 20c4 3b3e
000003d0: 4992 1dbe cd23 6dbe 2fc7 853e f8d7 2bbe
000003e0: 31d2 a7be fab3 91be caa2 bdbe a266 5fbe
000003f0: fd8e e83d 1bd7 973e 944e 28be 40f3 893d
-0.020375706 -0.017091317 0.030363241 0.0059505412 -0.045766838 -0.39624968 0.2892713 -0.44894633
-0.24730502 0.08875752 -0.3483821 -0.0272998 0.25982544 -0.07854462 0.056865446 0.24231254
-0.30786747 0.08349004 0.043758254 -0.17849398 0.33006686 -0.2444454 -0.4556215 -0.05226161
0.08463295 0.18049046 0.17028576 -0.052838422 0.018725723 -0.08895815 -0.28529134 -0.15284202
-0.1920921 0.27007973 -0.13379607 -0.027966885 -0.10900055 -0.12613836 -0.17948432 0.23238082
-0.18094362 -0.024730692 -0.21983472 -0.0099416105 0.3602158 0.15912601 0.07805381 -0.063711874
-0.208469 -0.0132435765 -0.18357544 0.05941866 -0.12014273 -0.012308675 0.19751754 -0.07662421
-0.24060106 0.073724695 0.2015758 -0.30709362 0.28188464 -0.31405377 0.05933067 -0.23371744
-0.2890224 0.07804749 -0.058835488 -0.09393781 -0.021170681 0.18568328 -0.18855444 0.14956601
-0.07204216 -0.04070168 -0.22980268 -0.22520113 0.050939098 0.014601509 0.2829788 0.17758091
0.21505699 0.20573644 -0.16577783 0.3169838 0.2434068 -0.015789904 -0.2805307 0.1633538
-0.30827066 -0.2857238 -0.056330178 -0.345921 0.14504409 0.19020826 0.29088745 0.28491142
-0.13088828 0.11315582 0.13858502 -0.20243739 -0.21933192 -0.26953655 -0.006155826 -0.30257574
-0.06362532 -0.10785928 -0.04517146 0.01668138 0.2157479 0.012183389 -0.16931796 -0.02243522
-0.2841036 -0.25141266 -0.09108813 -0.048988957 -0.26553544 0.15226635 -0.21912907 -0.16195117
-0.14432533 0.13663024 -0.1599202 0.26487148 0.2182424 0.127572 0.15324168 0.20492679
-0.40331876 0.07550726 -0.0006070869 0.17338118 -0.0045111678 -0.37788844 0.17560461 0.084741645
-0.0064678313 0.19494446 0.23388526 -0.1623635 -0.12809917 -0.0037540223 -0.32101697 0.22963934
-0.046245642 0.36249802 -0.1266394 -0.017983716 -0.44260162 -0.15568197 -0.13105817 -0.000100394995
-0.11087502 0.19400814 -0.20331192 0.28304258 0.08401431 -0.25700334 0.16874516 -0.49659455
-0.11704215 -0.06487969 0.22168346 -0.008232588 -0.10907422 0.1278381 0.1863766 -0.07306881
-0.25018415 -0.20017518 0.08280182 -0.22315751 0.28891695 -0.39477766 0.09907116 0.05561959
0.3250797 -0.19228554 -0.096101284 -0.26212397 -0.057659186 -0.22528513 -0.19941293 -0.027291004
-0.06492013 0.29188502 -0.47581765 -0.46564388 0.18570934 0.15468429 -0.13871719 0.06351898
0.056553137 0.3273291 -0.29227528 -0.10098766 0.21509689 0.16309784 0.12344716 0.014638901
-0.18243271 -0.088933416 -0.3390518 0.16485985 0.058909427 -0.25214273 -0.13977975 0.024676401
-0.3039109 -0.21549709 -0.20340972 -0.20995216 -0.20169255 0.19143501 0.19877495 0.21401533
0.15318292 0.08992109 0.24116218 0.09871754 -0.25073543 0.081708275 -0.15019204 0.114786394
-0.24972934 0.2437053 0.28018394 0.12396781 0.101744846 -0.16952774 -0.11092352 -0.24550162
-0.51197684 -0.03439749 0.22044699 0.21717687 -0.11525426 0.16523598 -0.09646821 -0.40522376
0.21669605 -0.051969677 -0.26890633 0.18336535 -0.15387835 -0.23158188 0.26128528 -0.16781604
-0.3277755 -0.28457624 -0.3703826 -0.21816495 0.11355398 0.296563 -0.16436225 0.067358494

arith.constant3 f4 [64, 1600]
00000000: 022c 8d3d e597 ffbc 594f 94bc 856e ec3c
00000010: 391e f83c ff88 283d dbe3 7cbd cf07 093e
00000020: 3db9 6e3e bd0f 1fbe 4c22 c3bd c8af 1dbd
00000030: 1448 f73d e4c9 e13c 7cbf 02be 0ca0 c63d
00000040: b774 e63d f32f c7bd fd1f 513d 5921 773d
00000050: 8d41 c23c 3261 1a3d 7168 d4b9 6311 31be
00000060: d326 82bd 4db5 6fbd bb23 533c 3c7b 0c3e
00000070: c734 81bd c249 163c ee94 f0bc b7b8 d33d
00000080: 0ecb b83d aa2b a43a 7048 0f3e 472a 3d3e
00000090: ccea a6bc 3101 433d df0f 74bd 538a 74bd
000000a0: 47c5 353e 2448 143c e5d7 b73c 403e 65bd
000000b0: dae5 0d3d 1989 bfbc a637 0b3d 51b7 c93d
000000c0: d1ef ecba 2ac5 4b3d 3700 b93c 7b6d f43c
000000d0: a222 793d 724d eebd 493c ea3d 7489 393d
000000e0: 309b 8f3d 916b 493e 8de7 b83c 67db d0bb
000000f0: 25cf d7bd b853 b73d 3ebd 8cbd ac14 663c
00000100: e5d4 373e 6d1f ef3d f202 db3b db74 a73d
00000110: 54ac d13e 2a94 a83e 6ca1 83be d40a b43c
00000120: 2988 643e abbc 5dbd 3eb6 2abe 8255 e83d
00000130: 16e2 543e 95e8 c73c 94ff 88bd 5d6f 953e
00000140: 0d14 783d 87af d6bd 223b 083e 13f3 b5bc
00000150: 8d50 ac3c 0832 b63d dbb9 3dbe 02e0 123c
00000160: d05b b2bd 9351 363c 2e7a f33c db0a 493e
00000170: edf8 19bd a1df 413d e166 a93d e3cf e73c
00000180: 1f72 1cba 0f0a 133c 3200 fe3d f675 463e
00000190: 06f6 c43c 56da ffbd 671d adbc 04a3 0abe
000001a0: 9ed0 24bd fb50 7b3d 564c 603d aa75 c33c
000001b0: 17d8 9a3d 50cc f6bb 2b4b 023e dd1b 073e
000001c0: 37b2 69bd e9ec 113e e68c 333e 3b9c c73c
000001d0: 1fd6 c13d e25e 4bbc 0767 483e 0b2a fbbd
000001e0: a798 1a3e 9d61 613e 074a 0b3e 963b efbc
000001f0: 8a34 27be 18aa a33e 43e9 1dbe e9c4 51bd
00000200: ca35 923d 6c6f 843b 9274 7bba 6ac8 51be
00000210: a495 883e 9a1a 9f3e 0793 d13b 56dc 94bd
00000220: 7316 383e 596d 08bb a89d a9bd 512f b43e
00000230: 3dc2 d1bb d3c6 5b3c f09e 493c 91b5 cd3e
00000240: 2665 a7bc 3e11 5cbd 4347 003e a117 9b3c
00000250: a06c 3bbd 1b51 3cbd 2bc1 36be 6944 f3ba
00000260: cf83 ddbd c2ad 44bd a2a1 54bd e163 e73d
00000270: 0cf6 cebc bb11 49bb f4ed e6bd d3ab cabd
00000280: ab9e 39be 1040 a73c ed9b a1ba 1c46 223e
00000290: 189f afbc 36ae 1abe cdff f6bb 5838 c93c
000002a0: 1ddf 01be bcab bbbc 8f04 963d 7b1c e6bd
000002b0: d380 99bd 0835 9abc 6f77 4f3e f180 96bc
000002c0: 23ec 40be bddd ea3d b696 c53d 6f44 adbd
000002d0: 3385 a43d 5f8b e4bc c4db 443d e16d 99bd
000002e0: 914c c83d cf94 6c3e 5161 f6bc a95d 89bd
000002f0: 7eea f5bd 5ad0 833e 3807 4abd e76c 21be
00000300: 335f b8bd a3c6 093e 3bfa 1f3d 9a31 ddbd
00000310: ddca 003e 364b 783d b3b8 f43d fbb9 823d
00000320: 4d0f 13be 5d84 15bd 3a87 ac3c 5802 093e
00000330: 8c70 82bd ba6b a63c 4db8 19bc fdab 6a3e
00000340: a49a d4bd 789a 8cbd 0b3a dd3d 57e6 7cbd
00000350: a9f4 21be fa87 c2bc f51c c7bd d9f2 f03d
00000360: 3f37 ce3c d225 a3bd 27ac 1f3e c675 1f3d
00000370: c6ce 20bd e10f 89bd 4227 acbd cb80 f9bd
00000380: 42be c1bd e1d3 893d 5c25 a0bd 2d3b a2bd
00000390: 8e34 93bd 0a6b 80bd b235 c0bd b9d4 673e
000003a0: 93b5 323c b672 2f3d 5e23 ee3d 4dd1 a5bd
000003b0: 5bde f0ba e788 1f3d 93c7 963d fed3 dabd
000003c0: d3a5 82bc c9e4 ecbd 7027 4d3e 2f92 02be
000003d0: 7331 ff3d 033b 253e 7912 6dbd ffd4 a93b
000003e0: 1443 05bd 80b9 97bc f203 cebd 205e dd3d
000003f0: 1140 03be ce39 703e 8358 bc3c 9662 02be
0.068931594 -0.031200359 -0.018104242 0.028861294 0.030287849 0.041146275 -0.061740737 0.13381885
0.2331285 -0.15533347 -0.09528026 -0.038497716 0.12074295 0.02756209 -0.12768358 0.09698495
0.1125273 -0.097259425 0.051055897 0.060334537 0.023712898 0.03769035 -0.00040513606 -0.17291789
-0.063550614 -0.05852251 0.012886937 0.13718885 -0.063088946 0.009172859 -0.02936789 0.10337966
0.090231046 0.001252522 0.13992476 0.18473159 -0.020375632 0.047608558 -0.05958545 -0.05970223
0.17751037 0.009050403 0.022441814 -0.05596757 0.03464303 -0.023380803 0.033988617 0.09849418
-0.0018076842 0.049748577 0.02258311 0.02983736 0.060824044 -0.11635865 0.1143728 0.0452971
0.070120215 0.1966994 0.02257135 -0.006373811 -0.105375566 0.08951515 -0.068720326 0.0140430145
0.17952307 0.11675916 0.0066837007 0.08176585 0.40951788 0.3292554 -0.25709093 0.02197782
0.22317566 -0.054135006 -0.16671082 0.11344434 0.2078937 0.024402896 -0.06689373 0.29186526
0.060565997 -0.10482698 0.13303807 -0.022210633 0.021034503 0.088962615 -0.1852793 0.00896454
-0.08708918 0.011127847 0.029721346 0.19633047 -0.03759091 0.04733241 0.08271576 0.02829737
-0.0005967933 0.008974566 0.12402381 0.19380936 0.024043094 -0.12492816 -0.021132184 -0.13538748
-0.040238015 0.061356526 0.0547603 0.023859818 0.07560747 -0.00753168 0.12723987 0.13194223
-0.057054725 0.1425053 0.17534217 0.024366489 0.094646685 -0.012412759 0.19570552 -0.122638784
0.15097295 0.22009893 0.13602458 -0.029203217 -0.16328636 0.3196571 -0.15421014 -0.05121318
0.07139166 0.004041603 -0.00095922605 -0.20486608 0.26676667 0.31074983 0.006395701 -0.07268588
0.17977314 -0.002081713 -0.08282024 0.3519235 -0.006401329 0.013414103 0.01230596 0.40177587
-0.020433974 -0.05372738 0.12527184 0.018932166 -0.04575789 -0.045975786 -0.17847125 -0.0018559817
-0.10816156 -0.04801727 -0.051911958 0.11298347 -0.025263809 -0.0030680734 -0.11275855 -0.09896054
-0.18126933 0.02041629 -0.0012329795 0.15847057 -0.021438166 -0.15105519 -0.007537818 0.024563
-0.12682767 -0.022909038 0.07325088 -0.11235901 -0.074952744 -0.018824115 0.20260404 -0.01837203
-0.18840079 0.114680745 0.096478865 -0.08460318 0.08033218 -0.027898489 0.048061147 -0.07491661
0.09780229 0.23103641 -0.030075701 -0.067073174 -0.120076165 0.25744897 -0.04932329 -0.15764199
-0.09002533 0.1345468 0.039056998 -0.10800476 0.12577386 0.0606186 0.11949291 0.06383129
-0.14361306 -0.036503185 0.021060575 0.133798 -0.06369123 0.02031504 -0.00938232 0.22917171
-0.10381058 -0.068654 0.108020864 -0.061743107 -0.15815987 -0.02374648 -0.0972232 0.117650695
0.025172828 -0.07966198 0.15593015 0.038930677 -0.039259695 -0.06692482 -0.08405925 -0.121827684
-0.09460117 0.06729866 -0.07819626 -0.07921443 -0.071877584 -0.06270416 -0.093852416 0.22639741
0.0109075485 0.042834006 0.116278395 -0.080965616 -0.0018376814 0.03894892 0.073622845 -0.106849656
-0.015948212 -0.11567075 0.20034575 -0.12751077 0.124606036 0.16135792 -0.057878945 0.005182862
-0.032534674 -0.01852107 -0.10059346 0.108089685 -0.12817408 0.2345955 0.022991424 -0.1273292

arith.constant4 f4 [64]
00000000: 6f3b 1ebc b77d 5cbd af9b 04bd 63d7 ceba
00000010: d8ce 10bc fb49 fd3c 5fc2 a0bb 71f5 6d3c
00000020: fa70 23bd 6b84 193d 3091 aabc bc55 04bd
00000030: 32ea 9dbb dba1 12bd 9d81 e73b 19d0 773d
00000040: 51db 433d 8d3b dc3c d88a d8bc 400d 373d
00000050: 66d9 003d 9a40 14bd 8393 d2bc 3aef 60bd
00000060: 0ce7 e53b e413 29bd b3bf 2abd d1c7 13bd
00000070: 637e 203d 4cfd 95bc fd71 783d e2f6 c63c
00000080: f67f a5bc d6bb c4bb 04d5 4bbd 9c9c 6abc
00000090: f3f4 1bbd e14a abbb 93ff 6a3d 30b4 0b3d
000000a0: f52a 423d d91f 6cbd 0afe adbb d11e 4ebc
000000b0: 34ce 563d a4ba 123d c6ec d2bb b82d aa38
000000c0: 6898 f8bc fa48 28bc 3909 52bc 2f2d e1bb
000000d0: 8a70 923c e982 2cbc 9104 30bc b800 35bc
000000e0: 74b5 44bd a429 2f3c 9827 523d 4145 4c3d
000000f0: 9feb 993d 5b16 d4bc e9ba a8bc f4cf 4f3a
-0.009657725 -0.05383083 -0.032375034 -0.0015780743 -0.008838378 0.030919066 -0.0049059833 0.01452385
-0.039902665 0.0374798 -0.020821184 -0.032308325 -0.004819178 -0.03579889 0.0070650117 0.06050119
0.04781658 0.026883865 -0.026433393 0.04469037 0.031457327 -0.03619442 -0.025705105 -0.054915644
0.0070160683 -0.041278735 -0.041686725 -0.03607923 0.03918303 -0.018309258 0.060655583 0.024287645
-0.020202618 -0.006003837 -0.049763694 -0.014319565 -0.0380754 -0.005227432 0.05737264 0.034107387
0.04740425 -0.05764756 -0.005309825 -0.012580589 0.052442744 0.035822526 -0.006436917 8.1147475e-05
-0.03034611 -0.010271305 -0.012819582 -0.0068718414 0.017875928 -0.010529258 -0.010743276 -0.011047535
-0.04802461 0.01069108 0.05130729 0.049870733 0.07515644 -0.025889566 -0.020596938 0.0007927411

arith.constant5 f4 [10]
00000000: 5d42 333d 5156 153d 75a6 35bc 7f53 23bd
00000010: 108c 68bc 762d 813c ff24 49bd c906 72bc
00000020: 05de a33d e8f5 38bd
0.04376446 0.03645927 -0.01108705 -0.03987455 -0.01419355 0.015768748 -0.049107548 -0.0147721255
0.08001331 -0.04515639

sequential_1/conv2d_1/convolution f4 [32, 3, 3, 1]
00000000: b454 33be 3602 aa3d 34b1 3d3e ed0c 373e
00000010: c571 b23d a615 99ba 5a32 b23d 1d10 0bbe
00000020: 70f7 0ebe a679 c5be e12b 823e 1215 0b3e
00000030: ca96 d7be 55dc 5e3e 5ff8 3e3e 2e26 aabe
00000040: 77a3 ae3d f707 273d b059 583c 71c4 253e
00000050: 1348 99bd cb58 1dbd c6d1 3b3d 7208 973b
00000060: 4cb1 033e 20e2 4c3d ad1b 2b3d 4ce7 523e
00000070: a863 873e a1ad 8c3e 5b4b 123e b14d 94bd
00000080: c691 f9bd e48d cabe e18a 5fbe defb 3fbe
00000090: 0fa1 74be 23e0 39bc e74e 363e 091a d4bd
000000a0: f8a5 4c3d 37c5 143e 4b5f cdbd 8ba7 323e
000000b0: 3dd5 a03d 1ad9 cdbd f163 343c 8b1c 063e
000000c0: 59c7 793e eabc 813e b7d2 09bd af75 b63d
000000d0: 4cac 16be 629e 99be d156 603e 8437 dc3d
000000e0: 6882 52be fda5 903d 07ab 4cbd 4af4 35be
000000f0: 3c17 24be db30 1f3d d689 66be b794 c23d
00000100: 54a0 c73d 4307 703d 0f1d 753d b4ec 8fbd
00000110: ce8a a7bd 3ae5 e03d b150 f23d 9d94 423d
00000120: a7f1 d8be 4b47 a4be 5372 813d 2bef 593e
00000130: b84c 903e ee3d 493d d80f fc3c 4a75 2f3e
00000140: 2ccf 01be bcb8 373e 456c 6c3e 4fb1 4a3e
00000150: a7f8 423e 5391 a639 79f4 8c3c 5dbc 9abe
00000160: da3e babe e5fa adbe 0676 22be ae3a e5be
00000170: dbb3 4dbe aa44 653d 5cfc 2d3e f4f8 a93d
00000180: 082e 423e 5298 6a3e 6205 c9bb 17bf 76be
00000190: 9877 48be 4ab8 79be 4ee5 18be 3936 d3bd
000001a0: 181a 85bd e371 a43e dc87 283e 89fe 803e
000001b0: c616 e4bc bbc6 02bc 6f85 be3d 23f6 c9bc
000001c0: fe10 2b3e 6a18 92bc 6d37 043e d967 2d3e
000001d0: fdb4 f8bd 5690 57be cfb5 313e d271 0bbb
000001e0: 21a8 a63d bbb0 173e a607 e63d 6ac3 18bc
000001f0: bf79 603e 1b5a 68be 667f 8bbd 57ee aebe
00000200: 1415 acbe e63f 8c3e b4ba d6bd 4104 88be
00000210: ddf6 9c3e a0d0 903e 48be 3f3e 4508 173e
00000220: 09b7 e23d 3fd9 25be 2028 a93e c5c8 1a3e
00000230: fb27 16bf 37c1 863e d073 253e 40d1 eebe
00000240: 04a7 0dbf e6d6 36be ce38 36bb 7b51 28bd
00000250: f842 283e 0008 af3e ddd3 8c3d 0995 713e
00000260: bbf1 f13c f840 9f3d 42f1 073e 929e 293c
00000270: 9330 89bd aa0c 1e3e ca49 6e3e 2fbf 99be
00000280: 0df3 4abe 752f 48be bbfb b43d 0c55 643d
00000290: 14f0 823c 44ba fa3d 81f2 893d 4d27 f93d
000002a0: 91fb d2bd 5a48 f43c 6642 b73d 74ca 6bbe
000002b0: 9e2b 0cbd f8e7 153e 0cf2 9b3d 6db4 803e
000002c0: 7598 4b3d abf6 bb3d cd66 5dbc 0997 12be
000002d0: 4997 123e 716b 87be 43c9 a4be f4e8 11be
000002e0: 77cd f63c 811c cabb de93 df3c 0ff7 783e
000002f0: e471 8e3e d9a4 23bd 770e dc3d 19a3 fabd
00000300: 427b d0bc 3550 313e 607d 5c3d 6532 5a3d
00000310: 943c 6b3b af09 de3d 4cf7 b23d 9a9c 253e
00000320: c938 013e 4716 6b3e 0bc2 673e b587 cd3d
00000330: a2fe 9fbe 19c6 e0be 55b4 32be 1a79 dcbc
00000340: 4a93 1d3d 7bdb e63d 11c9 f13d 6e5b 623e
00000350: 9f55 61be 8ac8 253e 78e0 4c3e 5451 b4be
00000360: e0b9 abbe f9b1 8fbd 19b0 dd3d edb2 4fbe
00000370: d640 243d 6ffe 2e3e 7ea9 3bbe d0f0 4bbc
00000380: 56e8 533e cf15 ff3d 8599 793c 9412 62bc
00000390: ab0d 023e ad7b 333e 3270 c33d 31db 39be
000003a0: af67 e73d 7cbb cc3d ef94 82bd 6c56 6ebd
000003b0: 9c11 dabe b734 ad3e e285 4dbd 0c05 dcbe
000003c0: 0c85 8c3e 1275 a63e 2e75 513d 7513 7abd
000003d0: cd12 053c bf9e 05bc 1229 163e 7c6c 0e3e
000003e0: b321 e33d 4ba8 d2bd 53c8 ffbd 7c53 073e
000003f0: e1db eebc 4251 34be 0637 a53e 5c3f 35bc
-0.1751278 0.08301203 0.18524629 0.17876025 0.08713106 -0.0011679425 0.0870101 -0.13580365
-0.13961577 -0.38569373 0.25424102 0.13582256 -0.4210723 0.21763737 0.18649434 -0.33232254
0.08527272 0.04077908 0.013204977 0.16188218 -0.0748445 -0.038414758 0.045854352 0.004609161
0.12860602 0.050020337 0.04177444 0.20596045 0.2644322 0.27476218 0.14286558 -0.07241381
-0.12186007 -0.3956138 -0.21830322 -0.18748423 -0.23889564 -0.011344942 0.17803536 -0.10356528
0.049962968 0.14528356 -0.10027941 0.17446725 0.07853172 -0.100511745 0.011010156 0.13096826
0.24392451 0.25339442 -0.03364822 0.08909165 -0.14714164 -0.3000365 0.21908118 0.10752776
-0.20557559 0.0706291 -0.049967792 -0.1776897 -0.16024488 0.03886495 -0.22513518 0.09501021
0.09747377 0.058600675 0.059842166 -0.070275694 -0.08180772 0.109812215 0.11831797 0.04750501
-0.42371866 -0.32085642 0.06320634 0.21282642 0.28183532 0.049131326 0.030769274 0.17134586
-0.12676686 0.17941564 0.23088177 0.197942 0.19040166 0.00031770262 0.017206417 -0.30221835
-0.36376077 -0.3398048 -0.15865335 -0.44771332 -0.2008814 0.055973686 0.16990799 0.08299437
0.18962872 0.22909668 -0.006134675 -0.24096332 -0.19576871 -0.24386707 -0.14931223 -0.103130765
-0.064991176 0.3211814 0.16458076 0.25194195 -0.02784289 -0.007981951 0.09302794 -0.0246535
0.16705701 -0.017833907 0.12911768 0.16934146 -0.12143896 -0.21051154 0.1735451 -0.002127756
0.08137537 0.14813511 0.112319276 -0.009323934 0.21921442 -0.22690623 -0.06811409 -0.34166214
-0.3360983 0.273925 -0.104848295 -0.26565745 0.30657092 0.28284168 0.1872493 0.14749248
0.110700674 -0.16196154 0.33038425 0.1511565 -0.58654755 0.26319286 0.1615746 -0.4664402
-0.5533297 -0.17855415 -0.0027804854 -0.04109333 0.16431797 0.3418579 0.06876347 0.23592009
0.029534211 0.07776064 0.13275626 0.0103527475 -0.06698718 0.15434518 0.23270336 -0.30028674
-0.19819279 -0.19549353 0.08837076 0.05574517 0.015983619 0.122425586 0.06735707 0.12165699
-0.10301889 0.029819656 0.08948211 -0.23026448 -0.034221284 0.1463927 0.07614526 0.25137654
0.04970594 0.091779076 -0.013513279 -0.14315428 0.14315523 -0.2644916 -0.321848 -0.14249021
0.03012727 -0.0061679487 0.027292188 0.24312995 0.27821267 -0.039952133 0.107449464 -0.1223814
-0.025449399 0.17315753 0.053830504 0.053270716 0.0035894262 0.10841691 0.087385744 0.1617302
0.12619318 0.22957717 0.22632615 0.1003565 -0.31248957 -0.43901137 -0.17451604 -0.026913214
0.038470544 0.11272331 0.118059285 0.2210519 -0.22005318 0.16189781 0.20007503 -0.35218298
-0.3354025 -0.070163675 0.108246036 -0.20283099 0.040100895 0.17089246 -0.18326375 -0.012447551
0.20694098 0.124553315 0.015234356 -0.013798375 0.12700526 0.17527647 0.09542884 -0.18150021
0.11299073 0.09996697 -0.06376063 -0.058187887 -0.4259156 0.3382928 -0.05017651 -0.429726
0.27445257 0.32511193 0.051137142 -0.061053712 0.008122158 -0.008155524 0.14664105 0.13908571
0.11090412 -0.102860056 -0.12489381 0.1321544 -0.02915758 -0.17609122 0.32268542 -0.011062469

sequential_1/conv2d_1/Relu;sequential_1/conv2d_1/add;sequential_1/conv2d_1/convolution; f4 [32]
00000000: 9d1f 39be e69e 5aba e750 11be 77ca c6bb
00000010: a808 a7bd d79b 10bd ba46 89ba c834 2dbe
00000020: 688a b2bc 10ec 2fbb b9f0 d2bc 439e b73d
00000030: dac1 30be ec55 fcbd 30f5 3fbd 734d c0ba
00000040: 1fe4 25bd 992d 5cbc 3bcf 27be 302b 16be
00000050: baed 14bc c51e 0fbe 62eb 57bc 7c3f 63bd
00000060: 2d4b 32bd d902 6abe 53a5 36bd 98d2 4fbe
00000070: fe14 28bc 189e 22bd 6adc 2ebe 3c85 14bd
-0.18078466 -0.0008339718 -0.14191018 -0.006066616 -0.08155948 -0.03530487 -0.0010473349 -0.16914666
-0.021794513 -0.0026843585 -0.025749551 0.08965733 -0.17261449 -0.12321076 -0.04686469 -0.0014671519
-0.040500756 -0.013438606 -0.16387646 -0.14664912 -0.009089882 -0.13976581 -0.013178678 -0.055480465
-0.043528724 -0.22852649 -0.04459126 -0.20295179 -0.010258911 -0.03970155 -0.17076269 -0.036259875
