Marrakesh Example/Resources/TinyML_saved_models/modelMNIST_quant.tflite (tflite, 130104 bytes, 8 tensors)

arith.constant f4 [32]
0	0xbe391f9d	-0.18078466
1	0xba5a9ee6	-0.0008339718
2	0xbe1150e7	-0.14191018
3	0xbbc6ca77	-0.006066616
4	0xbda708a8	-0.08155948
5	0xbd109bd7	-0.03530487
6	0xba8946ba	-0.0010473349
7	0xbe2d34c8	-0.16914666
8	0xbcb28a68	-0.021794513
9	0xbb2fec10	-0.0026843585
10	0xbcd2f0b9	-0.025749551
11	0x3db79e43	0.08965733
12	0xbe30c1da	-0.17261449
13	0xbdfc55ec	-0.12321076
14	0xbd3ff530	-0.04686469
15	0xbac04d73	-0.0014671519
16	0xbd25e41f	-0.040500756
17	0xbc5c2d99	-0.013438606
18	0xbe27cf3b	-0.16387646
19	0xbe162b30	-0.14664912
20	0xbc14edba	-0.009089882
21	0xbe0f1ec5	-0.13976581
22	0xbc57eb62	-0.013178678
23	0xbd633f7c	-0.055480465
24	0xbd324b2d	-0.043528724
25	0xbe6a02d9	-0.22852649
26	0xbd36a553	-0.04459126
27	0xbe4fd298	-0.20295179
28	0xbc2814fe	-0.010258911
29	0xbd229e18	-0.03970155
30	0xbe2edc6a	-0.17076269
31	0xbd14853c	-0.036259875

arith.constant1 f4 [32, 3, 3, 1]
0	0xbe3354b4	-0.1751278
1	0x3daa0236	0.08301203
2	0x3e3db134	0.18524629
3	0x3e370ced	0.17876025
4	0x3db271c5	0.08713106
5	0xba9915a6	-0.0011679425
6	0x3db2325a	0.0870101
7	0xbe0b101d	-0.13580365
8	0xbe0ef770	-0.13961577
9	0xbec579a6	-0.38569373
10	0x3e822be1	0.25424102
11	0x3e0b1512	0.13582256
12	0xbed796ca	-0.4210723
13	0x3e5edc55	0.21763737
14	0x3e3ef85f	0.18649434
15	0xbeaa262e	-0.33232254
16	0x3daea377	0.08527272
17	0x3d2707f7	0.04077908
18	0x3c5859b0	0.013204977
19	0x3e25c471	0.16188218
20	0xbd994813	-0.0748445
21	0xbd1d58cb	-0.038414758
22	0x3d3bd1c6	0.045854352
23	0x3b970872	0.004609161
24	0x3e03b14c	0.12860602
25	0x3d4ce220	0.050020337
26	0x3d2b1bad	0.04177444
27	0x3e52e74c	0.20596045
28	0x3e8763a8	0.2644322
29	0x3e8cada1	0.27476218
30	0x3e124b5b	0.14286558
31	0xbd944db1	-0.07241381
32	0xbdf991c6	-0.12186007
33	0xbeca8de4	-0.3956138
34	0xbe5f8ae1	-0.21830322
35	0xbe3ffbde	-0.18748423
36	0xbe74a10f	-0.23889564
37	0xbc39e023	-0.011344942
38	0x3e364ee7	0.17803536
39	0xbdd41a09	-0.10356528
40	0x3d4ca5f8	0.049962968
41	0x3e14c537	0.14528356
42	0xbdcd5f4b	-0.10027941
43	0x3e32a78b	0.17446725
44	0x3da0d53d	0.07853172
45	0xbdcdd91a	-0.100511745
46	0x3c3463f1	0.011010156
47	0x3e061c8b	0.13096826
48	0x3e79c759	0.24392451
49	0x3e81bcea	0.25339442
50	0xbd09d2b7	-0.03364822
51	0x3db675af	0.08909165
52	0xbe16ac4c	-0.14714164
53	0xbe999e62	-0.3000365
54	0x3e6056d1	0.21908118
55	0x3ddc3784	0.10752776
56	0xbe528268	-0.20557559
57	0x3d90a5fd	0.0706291
58	0xbd4cab07	-0.049967792
59	0xbe35f44a	-0.1776897
60	0xbe24173c	-0.16024488
61	0x3d1f30db	0.03886495
62	0xbe6689d6	-0.22513518
63	0x3dc294b7	0.09501021
64	0x3dc7a054	0.09747377
65	0x3d700743	0.058600675
66	0x3d751d0f	0.059842166
67	0xbd8fecb4	-0.070275694
68	0xbda78ace	-0.08180772
69	0x3de0e53a	0.109812215
70	0x3df250b1	0.11831797
71	0x3d42949d	0.04750501
72	0xbed8f1a7	-0.42371866
73	0xbea4474b	-0.32085642
74	0x3d817253	0.06320634
75	0x3e59ef2b	0.21282642
76	0x3e904cb8	0.28183532
77	0x3d493dee	0.049131326
78	0x3cfc0fd8	0.030769274
79	0x3e2f754a	0.17134586
80	0xbe01cf2c	-0.12676686
81	0x3e37b8bc	0.17941564
82	0x3e6c6c45	0.23088177
83	0x3e4ab14f	0.197942
84	0x3e42f8a7	0.19040166
85	0x39a69153	0.00031770262
86	0x3c8cf479	0.017206417
87	0xbe9abc5d	-0.30221835
88	0xbeba3eda	-0.36376077
89	0xbeadfae5	-0.3398048
90	0xbe227606	-0.15865335
91	0xbee53aae	-0.44771332
92	0xbe4db3db	-0.2008814
93	0x3d6544aa	0.055973686
94	0x3e2dfc5c	0.16990799
95	0x3da9f8f4	0.08299437
96	0x3e422e08	0.18962872
97	0x3e6a9852	0.22909668
98	0xbbc90562	-0.006134675
99	0xbe76bf17	-0.24096332
100	0xbe487798	-0.19576871
101	0xbe79b84a	-0.24386707
102	0xbe18e54e	-0.14931223
103	0xbdd33639	-0.103130765
104	0xbd851a18	-0.064991176
105	0x3ea471e3	0.3211814
106	0x3e2887dc	0.16458076
107	0x3e80fe89	0.25194195
108	0xbce416c6	-0.02784289
109	0xbc02c6bb	-0.007981951
110	0x3dbe856f	0.09302794
111	0xbcc9f623	-0.0246535
112	0x3e2b10fe	0.16705701
113	0xbc92186a	-0.017833907
114	0x3e04376d	0.12911768
115	0x3e2d67d9	0.16934146
116	0xbdf8b4fd	-0.12143896
117	0xbe579056	-0.21051154
118	0x3e31b5cf	0.1735451
119	0xbb0b71d2	-0.002127756
120	0x3da6a821	0.08137537
121	0x3e17b0bb	0.14813511
122	0x3de607a6	0.112319276
123	0xbc18c36a	-0.009323934
124	0x3e6079bf	0.21921442
125	0xbe685a1b	-0.22690623
126	0xbd8b7f66	-0.06811409
127	0xbeaeee57	-0.34166214
128	0xbeac1514	-0.3360983
129	0x3e8c3fe6	0.273925
130	0xbdd6bab4	-0.104848295
131	0xbe880441	-0.26565745
132	0x3e9cf6dd	0.30657092
133	0x3e90d0a0	0.28284168
134	0x3e3fbe48	0.1872493
135	0x3e170845	0.14749248
136	0x3de2b709	0.110700674
137	0xbe25d93f	-0.16196154
138	0x3ea92820	0.33038425
139	0x3e1ac8c5	0.1511565
140	0xbf1627fb	-0.58654755
141	0x3e86c137	0.26319286
142	0x3e2573d0	0.1615746
143	0xbeeed140	-0.4664402
144	0xbf0da704	-0.5533297
145	0xbe36d6e6	-0.17855415
146	0xbb3638ce	-0.0027804854
147	0xbd28517b	-0.04109333
148	0x3e2842f8	0.16431797
149	0x3eaf0800	0.3418579
150	0x3d8cd3dd	0.06876347
151	0x3e719509	0.23592009
152	0x3cf1f1bb	0.029534211
153	0x3d9f40f8	0.07776064
154	0x3e07f142	0.13275626
155	0x3c299e92	0.0103527475
156	0xbd893093	-0.06698718
157	0x3e1e0caa	0.15434518
158	0x3e6e49ca	0.23270336
159	0xbe99bf2f	-0.30028674
160	0xbe4af30d	-0.19819279
161	0xbe482f75	-0.19549353
162	0x3db4fbbb	0.08837076
163	0x3d64550c	0.05574517
164	0x3c82f014	0.015983619
165	0x3dfaba44	0.122425586
166	0x3d89f281	0.06735707
167	0x3df9274d	0.12165699
168	0xbdd2fb91	-0.10301889
169	0x3cf4485a	0.029819656
170	0x3db74266	0.08948211
171	0xbe6bca74	-0.23026448
172	0xbd0c2b9e	-0.034221284
173	0x3e15e7f8	0.1463927
174	0x3d9bf20c	0.07614526
175	0x3e80b46d	0.25137654
176	0x3d4b9875	0.04970594
177	0x3dbbf6ab	0.091779076
178	0xbc5d66cd	-0.013513279
179	0xbe129709	-0.14315428
180	0x3e129749	0.14315523
181	0xbe876b71	-0.2644916
182	0xbea4c943	-0.321848
183	0xbe11e8f4	-0.14249021
184	0x3cf6cd77	0.03012727
185	0xbbca1c81	-0.0061679487
186	0x3cdf93de	0.027292188
187	0x3e78f70f	0.24312995
188	0x3e8e71e4	0.27821267
189	0xbd23a4d9	-0.039952133
190	0x3ddc0e77	0.107449464
191	0xbdfaa319	-0.1223814
192	0xbcd07b42	-0.025449399
193	0x3e315035	0.17315753
194	0x3d5c7d60	0.053830504
195	0x3d5a3265	0.053270716
196	0x3b6b3c94	0.0035894262
197	0x3dde09af	0.10841691
198	0x3db2f74c	0.087385744
199	0x3e259c9a	0.1617302
200	0x3e0138c9	0.12619318
201	0x3e6b1647	0.22957717
202	0x3e67c20b	0.22632615
203	0x3dcd87b5	0.1003565
204	0xbe9ffea2	-0.31248957
205	0xbee0c619	-0.43901137
206	0xbe32b455	-0.17451604
207	0xbcdc791a	-0.026913214
208	0x3d1d934a	0.038470544
209	0x3de6db7b	0.11272331
210	0x3df1c911	0.118059285
211	0x3e625b6e	0.2210519
212	0xbe61559f	-0.22005318
213	0x3e25c88a	0.16189781
214	0x3e4ce078	0.20007503
215	0xbeb45154	-0.35218298
216	0xbeabb9e0	-0.3354025
217	0xbd8fb1f9	-0.070163675
218	0x3dddb019	0.108246036
219	0xbe4fb2ed	-0.20283099
220	0x3d2440d6	0.040100895
221	0x3e2efe6f	0.17089246
222	0xbe3ba97e	-0.18326375
223	0xbc4bf0d0	-0.012447551
224	0x3e53e856	0.20694098
225	0x3dff15cf	0.124553315
226	0x3c799985	0.015234356
227	0xbc621294	-0.013798375
228	0x3e020dab	0.12700526
229	0x3e337bad	0.17527647
230	0x3dc37032	0.09542884
231	0xbe39db31	-0.18150021
232	0x3de767af	0.11299073
233	0x3dccbb7c	0.09996697
234	0xbd8294ef	-0.06376063
235	0xbd6e566c	-0.058187887
236	0xbeda119c	-0.4259156
237	0x3ead34b7	0.3382928
238	0xbd4d85e2	-0.05017651
239	0xbedc050c	-0.429726
240	0x3e8c850c	0.27445257
241	0x3ea67512	0.32511193
242	0x3d51752e	0.051137142
243	0xbd7a1375	-0.061053712
244	0x3c0512cd	0.008122158
245	0xbc059ebf	-0.008155524
246	0x3e162912	0.14664105
247	0x3e0e6c7c	0.13908571
248	0x3de321b3	0.11090412
249	0xbdd2a84b	-0.102860056
250	0xbdffc853	-0.12489381
251	0x3e07537c	0.1321544
252	0xbceedbe1	-0.02915758
253	0xbe345142	-0.17609122
254	0x3ea53706	0.32268542
255	0xbc353f5c	-0.011062469

arith.constant3 f4 [10]
0	0x3d33425d	0.04376446
1	0x3d155651	0.03645927
2	0xbc35a675	-0.01108705
3	0xbd23537f	-0.03987455
4	0xbc688c10	-0.01419355
5	0x3c812d76	0.015768748
6	0xbd4924ff	-0.049107548
7	0xbc7206c9	-0.0147721255
8	0x3da3de05	0.08001331
9	0xbd38f5e8	-0.04515639

arith.constant4 f4 [64]
0	0xbc1e3b6f	-0.009657725
1	0xbd5c7db7	-0.05383083
2	0xbd049baf	-0.032375034
3	0xbaced763	-0.0015780743
4	0xbc10ced8	-0.008838378
5	0x3cfd49fb	0.030919066
6	0xbba0c25f	-0.0049059833
7	0x3c6df571	0.01452385
8	0xbd2370fa	-0.039902665
9	0x3d19846b	0.0374798
10	0xbcaa9130	-0.020821184
11	0xbd0455bc	-0.032308325
12	0xbb9dea32	-0.004819178
13	0xbd12a1db	-0.03579889
14	0x3be7819d	0.0070650117
15	0x3d77d019	0.06050119
16	0x3d43db51	0.04781658
17	0x3cdc3b8d	0.026883865
18	0xbcd88ad8	-0.026433393
19	0x3d370d40	0.04469037
20	0x3d00d966	0.031457327
21	0xbd14409a	-0.03619442
22	0xbcd29383	-0.025705105
23	0xbd60ef3a	-0.054915644
24	0x3be5e70c	0.0070160683
25	0xbd2913e4	-0.041278735
26	0xbd2abfb3	-0.041686725
27	0xbd13c7d1	-0.03607923
28	0x3d207e63	0.03918303
29	0xbc95fd4c	-0.018309258
30	0x3d7871fd	0.060655583
31	0x3cc6f6e2	0.024287645
32	0xbca57ff6	-0.020202618
33	0xbbc4bbd6	-0.006003837
34	0xbd4bd504	-0.049763694
35	0xbc6a9c9c	-0.014319565
36	0xbd1bf4f3	-0.0380754
37	0xbbab4ae1	-0.005227432
38	0x3d6aff93	0.05737264
39	0x3d0bb430	0.034107387
40	0x3d422af5	0.04740425
41	0xbd6c1fd9	-0.05764756
42	0xbbadfe0a	-0.005309825
43	0xbc4e1ed1	-0.012580589
44	0x3d56ce34	0.052442744
45	0x3d12baa4	0.035822526
46	0xbbd2ecc6	-0.006436917
47	0x38aa2db8	8.1147475e-05
48	0xbcf89868	-0.03034611
49	0xbc2848fa	-0.010271305
50	0xbc520939	-0.012819582
51	0xbbe12d2f	-0.0068718414
52	0x3c92708a	0.017875928
53	0xbc2c82e9	-0.010529258
54	0xbc300491	-0.010743276
55	0xbc3500b8	-0.011047535
56	0xbd44b574	-0.04802461
57	0x3c2f29a4	0.01069108
58	0x3d522798	0.05130729
59	0x3d4c4541	0.049870733
60	0x3d99eb9f	0.07515644
61	0xbcd4165b	-0.025889566
62	0xbca8bae9	-0.020596938
63	0x3a4fcff4	0.0007927411

arith.constant5 f4 [10, 64]
0	0xbca6eaf4	-0.020375706
1	0xbc8c0317	-0.017091317
2	0x3cf8bc55	0.030363241
3	0x3bc2fcc2	0.0059505412
4	0xbd3b7602	-0.045766838
5	0xbecae13d	-0.39624968
6	0x3e941b5e	0.2892713
7	0xbee5dc4b	-0.44894633
8	0xbe7d3d87	-0.24730502
9	0x3db5c681	0.08875752
10	0xbeb25f23	-0.3483821
11	0xbcdfa3d5	-0.0272998
12	0x3e8507d7	0.25982544
13	0xbda0dc00	-0.07854462
14	0x3d68ebbe	0.056865446
15	0x3e7820c7	0.24231254
16	0xbe9da0ce	-0.30786747
17	0x3daafcd3	0.08349004
18	0x3d333bdb	0.043758254
19	0xbe36c720	-0.17849398
20	0x3ea8fe86	0.33006686
21	0xbe7a4fe5	-0.2444454
22	0xbee94739	-0.4556215
23	0xbd561045	-0.05226161
24	0x3dad540a	0.08463295
25	0x3e38d27e	0.18049046
26	0x3e2e5f64	0.17028576
27	0xbd586d1a	-0.052838422
28	0x3c9966b0	0.018725723
29	0xbdb62fb1	-0.08895815
30	0xbe9211b5	-0.28529134
31	0xbe1c829e	-0.15284202
32	0xbe44b3cb	-0.1920921
33	0x3e8a47e4	0.27007973
34	0xbe0901d6	-0.13379607
35	0xbce51acf	-0.027966885
36	0xbddf3bae	-0.10900055
37	0xbe012a6a	-0.12613836
38	0xbe37cabd	-0.17948432
39	0x3e6df53d	0.23238082
40	0xbe394949	-0.18094362
41	0xbcca9805	-0.024730692
42	0xbe611c5a	-0.21983472
43	0xbc22e223	-0.0099416105
44	0x3eb86e35	0.3602158
45	0x3e22f1ee	0.15912601
46	0x3d9fdaad	0.07805381
47	0xbd827b5f	-0.063711874
48	0xbe5578e6	-0.208469
49	0xbc58fb96	-0.0132435765
50	0xbe3bfb33	-0.18357544
51	0x3d7360fb	0.05941866
52	0xbdf60d64	-0.12014273
53	0xbc49aa53	-0.012308675
54	0x3e4a420a	0.19751754
55	0xbd9ced27	-0.07662421
56	0xbe766020	-0.24060106
57	0x3d96fcf9	0.073724695
58	0x3e4e69e3	0.2015758
59	0xbe9d3b60	-0.30709362
60	0x3e90532f	0.28188464
61	0xbea0cba8	-0.31405377
62	0x3d7304b7	0.05933067
63	0xbe6f53a0	-0.23371744
64	0xbe93fabe	-0.2890224
65	0x3d9fd75d	0.07804749
66	0xbd70fd7b	-0.058835488
67	0xbdc06277	-0.09393781
68	0xbcad6e23	-0.021170681
69	0x3e3e23c2	0.18568328
70	0xbe41146a	-0.18855444
71	0x3e1927d5	0.14956601
72	0xbd938ad7	-0.07204216
73	0xbd26b6ce	-0.04070168
74	0xbe6b5165	-0.22980268
75	0xbe669b20	-0.22520113
76	0x3d50a584	0.050939098
77	0x3c6f3b2b	0.014601509
78	0x3e90e299	0.2829788
79	0x3e35d7c5	0.17758091
80	0x3e5c37e6	0.21505699
81	0x3e52ac93	0.20573644
82	0xbe29c1aa	-0.16577783
83	0x3ea24bb3	0.3169838
84	0x3e793fa2	0.2434068
85	0xbc8159d4	-0.015789904
86	0xbe8fa1b8	-0.2805307
87	0x3e274638	0.1633538
88	0xbe9dd5a7	-0.30827066
89	0xbe924a64	-0.2857238
90	0xbd66ba79	-0.056330178
91	0xbeb11c8f	-0.345921
92	0x3e148670	0.14504409
93	0x3e42c5f4	0.19020826
94	0x3e94ef33	0.29088745
95	0x3e91dfe9	0.28491142
96	0xbe060794	-0.13088828
97	0x3de7be3d	0.11315582
98	0x3e0de93b	0.13858502
99	0xbe4f4bbf	-0.20243739
100	0xbe60988c	-0.21933192
101	0xbe8a00b2	-0.26953655
102	0xbbc9b6d0	-0.006155826
103	0xbe9aeb35	-0.30257574
104	0xbd824dfe	-0.06362532
105	0xbddce554	-0.10785928
106	0xbd3905b5	-0.04517146
107	0x3c88a764	0.01668138
108	0x3e5ced04	0.2157479
109	0x3c479cd6	0.012183389
110	0xbe2d61b0	-0.16931796
111	0xbcb7ca11	-0.02243522
112	0xbe917607	-0.2841036
113	0xbe80b929	-0.25141266
114	0xbdba8c6a	-0.09108813
115	0xbd48a8a5	-0.048988957
116	0xbe87f443	-0.26553544
117	0x3e1bebb6	0.15226635
118	0xbe60635f	-0.21912907
119	0xbe25d687	-0.16195117
120	0xbe13ca05	-0.14432533
121	0x3e0be8cc	0.13663024
122	0xbe23c21f	-0.1599202
123	0x3e879d3c	0.26487148
124	0x3e5f7af0	0.2182424
125	0x3e02a23c	0.127572
126	0x3e1ceb63	0.15324168
127	0x3e51d854	0.20492679
128	0xbece7fcc	-0.40331876
129	0x3d9aa38d	0.07550726
130	0xba1f24ea	-0.0006070869
131	0x3e318ad6	0.17338118
132	0xbb93d26b	-0.0045111678
133	0xbec17a98	-0.37788844
134	0x3e33d1b2	0.17560461
135	0x3dad8d07	0.084741645
136	0xbbd3f01a	-0.0064678313
137	0x3e479f85	0.19494446
138	0x3e6f7f9e	0.23388526
139	0xbe26429e	-0.1623635
140	0xbe032c6e	-0.12809917
141	0xbb76060b	-0.0037540223
142	0xbea45c56	-0.32101697
143	0x3e6b2693	0.22963934
144	0xbd3d6c12	-0.046245642
145	0x3eb99957	0.36249802
146	0xbe01adc2	-0.1266394
147	0xbc935296	-0.017983716
148	0xbee29cae	-0.44260162
149	0xbe1f6b18	-0.15568197
150	0xbe06341d	-0.13105817
151	0xb8d28b27	-0.000100394995
152	0xbde31271	-0.11087502
153	0x3e46aa12	0.19400814
154	0xbe503100	-0.20331192
155	0x3e90eaf5	0.28304258
156	0x3dac0fb2	0.08401431
157	0xbe8395f1	-0.25700334
158	0x3e2ccb88	0.16874516
159	0xbefe41a4	-0.49659455
160	0xbdefb3cb	-0.11704215
161	0xbd84dfa5	-0.06487969
162	0x3e6300fd	0.22168346
163	0xbc06e1fa	-0.008232588
164	0xbddf624e	-0.10907422
165	0x3e02e7fe	0.1278381
166	0x3e3ed982	0.1863766
167	0xbd95a51a	-0.07306881
168	0xbe801823	-0.25018415
169	0xbe4cfab9	-0.20017518
170	0x3da99400	0.08280182
171	0xbe648367	-0.22315751
172	0x3e93ecec	0.28891695
173	0xbeca204c	-0.39477766
174	0x3dcae5d2	0.09907116
175	0x3d63d15e	0.05561959
176	0x3ea670d9	0.3250797
177	0xbe44e680	-0.19228554
178	0xbdc4d0c0	-0.096101284
179	0xbe86351d	-0.26212397
180	0xbd6c2c0a	-0.057659186
181	0xbe66b125	-0.22528513
182	0xbe4c32e7	-0.19941293
183	0xbcdf9162	-0.027291004
184	0xbd84f4d8	-0.06492013
185	0x3e9571f4	0.29188502
186	0xbef39e5f	-0.47581765
187	0xbeee68e0	-0.46564388
188	0x3e3e2a97	0.18570934
189	0x3e1e658f	0.15468429
190	0xbe0e0be1	-0.13871719
191	0x3d82163d	0.06351898
192	0x3d67a443	0.056553137
193	0x3ea797ae	0.3273291
194	0xbe95a51b	-0.29227528
195	0xbdced29e	-0.10098766
196	0x3e5c425c	0.21509689
197	0x3e27031f	0.16309784
198	0x3dfcd1dd	0.12344716
199	0x3c6fd800	0.014638901
200	0xbe3acfa4	-0.18243271
201	0xbdb622b9	-0.088933416
202	0xbead9833	-0.3390518
203	0x3e28d105	0.16485985
204	0x3d714b03	0.058909427
205	0xbe8118da	-0.25214273
206	0xbe0f226c	-0.13977975
207	0x3cca262a	0.024676401
208	0xbe9b9a36	-0.3039109
209	0xbe5cab45	-0.21549709
210	0xbe504aa3	-0.20340972
211	0xbe56fdb3	-0.20995216
212	0xbe4e887e	-0.20169255
213	0x3e44078a	0.19143501
214	0x3e4b8ba9	0.19877495
215	0x3e5b26d6	0.21401533
216	0x3e1cdbfc	0.15318292
217	0x3db8288c	0.08992109
218	0x3e76f338	0.24116218
219	0x3dca2c6c	0.09871754
220	0xbe806065	-0.25073543
221	0x3da756ab	0.081708275
222	0xbe19cbf1	-0.15019204
223	0x3deb1521	0.114786394
224	0xbe7fb90c	-0.24972934
225	0x3e798de2	0.2437053
226	0x3e8f7445	0.28018394
227	0x3dfde2d6	0.12396781
228	0x3dd05f9a	0.101744846
229	0xbe2d98ae	-0.16952774
230	0xbde32bdf	-0.11092352
231	0xbe7b64c7	-0.24550162
232	0xbf0310ea	-0.51197684
233	0xbd0ce462	-0.03439749
234	0x3e61bcdb	0.22044699
235	0x3e5e639d	0.21717687
236	0xbdec0a6d	-0.11525426
237	0x3e29339f	0.16523598
238	0xbdc59120	-0.09646821
239	0xbecf797d	-0.40522376
240	0x3e5de592	0.21669605
241	0xbd54de28	-0.051969677
242	0xbe89ae17	-0.26890633
243	0x3e3bc420	0.18336535
244	0xbe1d9249	-0.15387835
245	0xbe6d23cd	-0.23158188
246	0x3e85c72f	0.26128528
247	0xbe2bd7f8	-0.16781604
248	0xbea7d231	-0.3277755
249	0xbe91b3fa	-0.28457624
250	0xbebda2ca	-0.3703826
251	0xbe5f66a2	-0.21816495
252	0x3de88efd	0.11355398
253	0x3e97d71b	0.296563
254	0xbe284e94	-0.16436225
255	0x3d89f340	0.067358494

arith.constant6 f4 [64]
0	0xbd8bc915	-0.06825463
1	0xbd2c5571	-0.04207367
2	0xbd8271e3	-0.063693784
3	0xbde61947	-0.1123529
4	0x3d5ead87	0.054364707
5	0xbd825f75	-0.06365863
6	0xbda251c3	-0.07925751
7	0xbe68d4c0	-0.22737408
8	0x3ccb316f	0.024803845
9	0xbca73afe	-0.020413872
10	0xbd5a3d6f	-0.053281244
11	0xbd786141	-0.060639624
12	0xbdc70175	-0.09717075
13	0xbc95b86a	-0.018276412
14	0xbd12da96	-0.03585299
15	0x3c7d1faa	0.015449444
16	0xbe1195f2	-0.14217356
17	0xbdc8e134	-0.09808579
18	0xbdeef7c4	-0.11668351
19	0xbb821169	-0.0039693606
20	0xbe52b4d0	-0.20576787
21	0xbe2ca548	-0.16859925
22	0xbd9e1b3f	-0.077200405
23	0xbd549ce3	-0.05190743
24	0xbdf52e9f	-0.11971783
25	0xbdf4db3e	-0.1195588
26	0xbddcbb17	-0.10777872
27	0x3bc9a599	0.006153774
28	0xbd49f072	-0.049301572
29	0xbdd99fea	-0.10626204
30	0xbd75f867	-0.060051348
31	0xbddbe3fd	-0.10736845
32	0xbdc533ae	-0.09628998
33	0xbe3582ca	-0.17725673
34	0xbd95dca4	-0.073174745
35	0xbdcc4a78	-0.09975141
36	0xbd71be5d	-0.059019435
37	0xbdd4b2f7	-0.10385697
38	0xbd70f45e	-0.058826797
39	0xbd650bc5	-0.055919427
40	0xbe0d4a73	-0.13797931
41	0xbcb8e7f6	-0.022571545
42	0xbdaec6e7	-0.08534031
43	0xbd9f7677	-0.07786267
44	0x3c4cb1b1	0.012493537
45	0xbae38449	-0.001735815
46	0xbde67cf4	-0.11254302
47	0xbce31b7c	-0.027723067
48	0xbd1b103e	-0.037857287
49	0x3c1db2b4	0.009625126
50	0xbc7aa456	-0.01529797
51	0xbe0cc007	-0.13745128
52	0xbd565312	-0.052325316
53	0xbd4b1907	-0.049584415
54	0xbca08100	-0.019592762
55	0xbd6669c1	-0.0562532
56	0x3b12639d	0.0022337206
57	0xbdb92898	-0.09040946
58	0xbe0d16d1	-0.13778235
59	0xbd11d9fc	-0.035608277
60	0xbca2ade3	-0.019858306
61	0xbcf8c3ef	-0.030366866
62	0xbdd2f9b7	-0.103015356
63	0xbd995c4e	-0.07488309

tfl.pseudo_qconst i1 [64, 3, 3, 32]
0	0x07	7
1	0xda	-38
2	0xff	-1
3	0xe1	-31
4	0x03	3
5	0xd6	-42
6	0xec	-20
7	0xfb	-5
8	0x03	3
9	0xce	-50
10	0xd6	-42
11	0xcf	-49
12	0xf5	-11
13	0xe3	-29
14	0xaf	-81
15	0xdd	-35
16	0x04	4
17	0xde	-34
18	0x18	24
19	0x11	17
20	0x01	1
21	0xe8	-24
22	0xc5	-59
23	0x12	18
24	0xf1	-15
25	0xef	-17
26	0xbd	-67
27	0xfc	-4
28	0x92	-110
29	0xf5	-11
30	0x18	24
31	0xdb	-37
32	0x0b	11
33	0xe9	-23
34	0xee	-18
35	0xdd	-35
36	0x28	40
37	0x1e	30
38	0xe1	-31
39	0x19	25
40	0x15	21
41	0x03	3
42	0xe7	-25
43	0xf8	-8
44	0x1a	26
45	0x27	39
46	0xc6	-58
47	0xe6	-26
48	0x0f	15
49	0xe6	-26
50	0x17	23
51	0x11	17
52	0xfa	-6
53	0xe6	-26
54	0xdc	-36
55	0xfe	-2
56	0xea	-22
57	0x08	8
58	0xbd	-67
59	0x05	5
60	0xca	-54
61	0x12	18
62	0xea	-22
63	0xa3	-93
64	0x41	65
65	0xde	-34
66	0xec	-20
67	0x18	24
68	0xfb	-5
69	0x0a	10
70	0x22	34
71	0x1a	26
72	0x22	34
73	0x21	33
74	0xcf	-49
75	0xab	-85
76	0x1b	27
77	0x28	40
78	0xa3	-93
79	0x02	2
80	0xff	-1
81	0x22	34
82	0x18	24
83	0x05	5
84	0xa9	-87
85	0xfa	-6
86	0x2d	45
87	0x1f	31
88	0xe1	-31
89	0xe1	-31
90	0xc2	-62
91	0x21	33
92	0x81	-127
93	0x10	16
94	0xfc	-4
95	0xf5	-11
96	0xe7	-25
97	0x24	36
98	0x0d	13
99	0xd3	-45
100	0xfe	-2
101	0xbc	-68
102	0xcf	-49
103	0xf7	-9
104	0xb1	-79
105	0xae	-82
106	0xa4	-92
107	0xd1	-47
108	0x0a	10
109	0xe0	-32
110	0x98	-104
111	0xda	-38
112	0xf6	-10
113	0xe1	-31
114	0xfc	-4
115	0xe3	-29
116	0xbc	-68
117	0x0d	13
118	0xa1	-95
119	0x05	5
120	0x27	39
121	0xeb	-21
122	0xf6	-10
123	0xf7	-9
124	0xdb	-37
125	0xff	-1
126	0x13	19
127	0x21	33
128	0xf5	-11
129	0x01	1
130	0xe6	-26
131	0xff	-1
132	0xfb	-5
133	0x1e	30
134	0x0b	11
135	0xf2	-14
136	0xec	-20
137	0xd9	-39
138	0xe6	-26
139	0xf5	-11
140	0xee	-18
141	0x22	34
142	0x0e	14
143	0x14	20
144	0xe0	-32
145	0xf9	-7
146	0xe6	-26
147	0x06	6
148	0xf0	-16
149	0xec	-20
150	0xde	-34
151	0x0d	13
152	0x1f	31
153	0xf5	-11
154	0x0b	11
155	0xee	-18
156	0x18	24
157	0xfa	-6
158	0xef	-17
159	0xb7	-73
160	0xfc	-4
161	0x9a	-102
162	0xe7	-25
163	0x05	5
164	0xb8	-72
165	0x0c	12
166	0xfb	-5
167	0xf8	-8
168	0xdc	-36
169	0x03	3
170	0xe7	-25
171	0xfe	-2
172	0x0a	10
173	0xec	-20
174	0x15	21
175	0x12	18
176	0xb2	-78
177	0x0f	15
178	0xe6	-26
179	0xf7	-9
180	0xff	-1
181	0xd9	-39
182	0xfc	-4
183	0x0d	13
184	0xbf	-65
185	0xe6	-26
186	0xf1	-15
187	0xd6	-42
188	0x47	71
189	0xf4	-12
190	0xfc	-4
191	0x07	7
192	0xd2	-46
193	0x2d	45
194	0xc2	-62
195	0xd1	-47
196	0xf6	-10
197	0xa2	-94
198	0xa3	-93
199	0xe5	-27
200	0x97	-105
201	0xb5	-75
202	0xa5	-91
203	0x88	-120
204	0xd1	-47
205	0xe3	-29
206	0xc1	-63
207	0xaa	-86
208	0xdd	-35
209	0x18	24
210	0x15	21
211	0xb0	-80
212	0xaf	-81
213	0xe7	-25
214	0xd7	-41
215	0xc1	-63
216	0x27	39
217	0x05	5
218	0xb7	-73
219	0xee	-18
220	0x09	9
221	0xf0	-16
222	0xf8	-8
223	0x4e	78
224	0xe5	-27
225	0x3a	58
226	0x22	34
227	0xe1	-31
228	0x16	22
229	0xec	-20
230	0x2d	45
231	0x20	32
232	0x0f	15
233	0xcd	-51
234	0x33	51
235	0xe9	-23
236	0x20	32
237	0xf1	-15
238	0x14	20
239	0x0f	15
240	0xe9	-23
241	0xf7	-9
242	0x21	33
243	0xf1	-15
244	0xf9	-7
245	0x15	21
246	0xec	-20
247	0x2b	43
248	0x2e	46
249	0x25	37
250	0x36	54
251	0xfb	-5
252	0x46	70
253	0x0c	12
254	0x26	38
255	0x16	22

tfl.pseudo_qconst1 i1 [64, 1600]
0	0x15	21
1	0xf6	-10
2	0xfa	-6
3	0x09	9
4	0x09	9
5	0x0d	13
6	0xed	-19
7	0x2a	42
8	0x48	72
9	0xd0	-48
10	0xe2	-30
11	0xf4	-12
12	0x25	37
13	0x09	9
14	0xd8	-40
15	0x1e	30
16	0x23	35
17	0xe2	-30
18	0x10	16
19	0x13	19
20	0x07	7
21	0x0c	12
22	0x00	0
23	0xca	-54
24	0xec	-20
25	0xee	-18
26	0x04	4
27	0x2b	43
28	0xec	-20
29	0x03	3
30	0xf7	-9
31	0x20	32
32	0x1c	28
33	0x00	0
34	0x2b	43
35	0x39	57
36	0xfa	-6
37	0x0f	15
38	0xee	-18
39	0xed	-19
40	0x37	55
41	0x03	3
42	0x07	7
43	0xef	-17
44	0x0b	11
45	0xf9	-7
46	0x0b	11
47	0x1f	31
48	0xff	-1
49	0x0f	15
50	0x07	7
51	0x09	9
52	0x13	19
53	0xdc	-36
54	0x23	35
55	0x0e	14
56	0x16	22
57	0x3d	61
58	0x07	7
59	0xfe	-2
60	0xdf	-33
61	0x1c	28
62	0xeb	-21
63	0x04	4
64	0x38	56
65	0x24	36
66	0x02	2
67	0x19	25
68	0x7f	127
69	0x66	102
70	0xb0	-80
71	0x07	7
72	0x45	69
73	0xef	-17
74	0xcc	-52
75	0x23	35
76	0x40	64
77	0x08	8
78	0xeb	-21
79	0x5b	91
80	0x13	19
81	0xdf	-33
82	0x29	41
83	0xf9	-7
84	0x07	7
85	0x1c	28
86	0xc7	-57
87	0x03	3
88	0xe5	-27
89	0x03	3
90	0x09	9
91	0x3d	61
92	0xf4	-12
93	0x0f	15
94	0x1a	26
95	0x09	9
96	0x00	0
97	0x03	3
98	0x26	38
99	0x3c	60
100	0x07	7
101	0xd9	-39
102	0xf9	-7
103	0xd6	-42
104	0xf4	-12
105	0x13	19
106	0x11	17
107	0x07	7
108	0x17	23
109	0xfe	-2
110	0x27	39
111	0x29	41
112	0xee	-18
113	0x2c	44
114	0x36	54
115	0x08	8
116	0x1d	29
117	0xfc	-4
118	0x3d	61
119	0xda	-38
120	0x2f	47
121	0x44	68
122	0x2a	42
123	0xf7	-9
124	0xcd	-51
125	0x63	99
126	0xd0	-48
127	0xf0	-16
128	0x16	22
129	0x01	1
130	0x00	0
131	0xc0	-64
132	0x53	83
133	0x60	96
134	0x02	2
135	0xe9	-23
136	0x38	56
137	0xff	-1
138	0xe6	-26
139	0x6d	109
140	0xfe	-2
141	0x04	4
142	0x04	4
143	0x7d	125
144	0xfa	-6
145	0xef	-17
146	0x27	39
147	0x06	6
148	0xf2	-14
149	0xf2	-14
150	0xc9	-55
151	0xff	-1
152	0xde	-34
153	0xf1	-15
154	0xf0	-16
155	0x23	35
156	0xf8	-8
157	0xff	-1
158	0xdd	-35
159	0xe1	-31
160	0xc8	-56
161	0x06	6
162	0x00	0
163	0x31	49
164	0xf9	-7
165	0xd1	-47
166	0xfe	-2
167	0x08	8
168	0xd9	-39
169	0xf9	-7
170	0x17	23
171	0xdd	-35
172	0xe9	-23
173	0xfa	-6
174	0x3f	63
175	0xfa	-6
176	0xc6	-58
177	0x24	36
178	0x1e	30
179	0xe6	-26
180	0x19	25
181	0xf7	-9
182	0x0f	15
183	0xe9	-23
184	0x1e	30
185	0x48	72
186	0xf7	-9
187	0xeb	-21
188	0xdb	-37
189	0x50	80
190	0xf1	-15
191	0xcf	-49
192	0xe4	-28
193	0x2a	42
194	0x0c	12
195	0xdf	-33
196	0x27	39
197	0x13	19
198	0x25	37
199	0x14	20
200	0xd3	-45
201	0xf5	-11
202	0x07	7
203	0x29	41
204	0xec	-20
205	0x06	6
206	0xfd	-3
207	0x47	71
208	0xe0	-32
209	0xeb	-21
210	0x21	33
211	0xed	-19
212	0xcf	-49
213	0xf9	-7
214	0xe2	-30
215	0x24	36
216	0x08	8
217	0xe7	-25
218	0x30	48
219	0x0c	12
220	0xf4	-12
221	0xeb	-21
222	0xe6	-26
223	0xda	-38
224	0xe3	-29
225	0x15	21
226	0xe8	-24
227	0xe7	-25
228	0xea	-22
229	0xed	-19
230	0xe3	-29
231	0x46	70
232	0x03	3
233	0x0d	13
234	0x24	36
235	0xe7	-25
236	0xff	-1
237	0x0c	12
238	0x17	23
239	0xdf	-33
240	0xfb	-5
241	0xdc	-36
242	0x3e	62
243	0xd8	-40
244	0x27	39
245	0x32	50
246	0xee	-18
247	0x02	2
248	0xf6	-10
249	0xfa	-6
250	0xe1	-31
251	0x22	34
252	0xd8	-40
253	0x49	73
254	0x07	7
255	0xd9	-39
